test_output/simulate_job/site-2/model_epoch_2.pth (torch, 22193 bytes, 11 tensors)

model.0.0.weight f4 [1, 1, 3, 3, 3]
-0.30824602 -0.2967961 -0.08610458 0.2897327 -0.5627951 -0.6068115 0.52108836 -0.10056159
0.12657137 0.2685201 0.20338558 -0.2794674 -0.1251333 -0.25976855 -0.13495383 -0.033440452
-0.2750248 -0.12715702 0.52540475 -0.034645494 -0.45831108 0.121864974 0.062414054 -0.006613112
0.12608893 -0.10551441 -0.004468695
00000000: 6cd2 9dbe a9f5 97be 9957 b0bd d857 943e
00000010: 5713 10bf 0058 1bbf 0c66 053f 3cf3 cdbd
00000020: ed9b 013e 777b 893e 4f44 503e 5a16 8fbe
00000030: f222 00be 6200 85be 5631 0abe dbf8 08bd
00000040: 0dd0 8cbe 7335 02be ed80 063f 6fe8 0dbd
00000050: c0a7 eabe 5894 f93d e1a5 7f3d ceb2 d8bb
00000060: 751d 013e f017 d8bd 216e 92bb

model.1.0.weight f4 [1, 1, 3, 3, 3]
0.41781324 -0.52511185 0.3630132 0.0077455873 0.5943888 -0.13426591 0.5877355 -0.2561255
-0.17183389 0.09037456 -0.07919168 0.1811538 0.4628936 -0.17987007 0.20223354 -0.27385893
-0.22673824 -0.17023052 0.006476589 -0.4508076 -0.6129173 -0.19476756 0.027446963 0.23572364
0.24396238 0.45832682 0.57992244
00000000: 9eeb d53e bb6d 06bf dedc b93e b2ce fd3b
00000010: dd29 183f 017d 09be d575 163f e222 83be
00000020: 39f5 2fbe 4c16 b93d 3f2f a2bd 6280 393e
00000030: 6400 ed3e dc2f 38be 4f16 4f3e 3d37 8cbe
00000040: 122e 68be e950 2ebe 9139 d43b 41d0 e6be
00000050: 26e8 1cbf 2671 47be 74d8 e03c 8a61 713e
00000060: 46d1 793e d0a9 ea3e cc75 143f

model.2.0.weight f4 [1, 1, 3, 3, 3]
0.15365258 -0.19951779 -0.057767954 -0.04690701 0.2730467 0.055304147 0.17577031 0.2813002
-0.33555678 0.20693547 -0.069307126 -0.2576039 -0.1162193 -0.030873233 0.046757497 -0.38690668
0.025298294 0.3156235 -0.189888 0.29890314 -0.17386687 -0.14131185 -0.18298827 -0.1712111
0.27895325 -0.34950387 0.018390255
00000000: 1a57 1d3e 644e 4cbe 179e 6cbd 9121 40bd
00000010: c7cc 8b3e 9a86 623d 22fd 333e 9406 903e
00000020: 19ce abbe e4e6 533e e5f0 8dbd a9e4 83be
00000030: 6204 eebd dde9 fcbc ca84 3f3d a218 c6be
00000040: 5e3e cf3c 6799 a13e 0072 42be d509 993e
00000050: 280a 32be 0eb4 10be 4761 3bbe f651 2fbe
00000060: f6d2 8e3e 2cf2 b2be 29a7 963c

model.3.0.weight f4 [1, 1, 3, 3, 3]
0.29386374 0.0033406548 -0.39704847 0.38999382 0.090894505 0.035811666 -0.2946853 -0.016473679
0.26231328 -0.05897753 0.22471736 0.058242667 0.33503532 0.15216455 0.38252896 -0.6306816
0.015632806 0.27933156 0.19203033 -0.0038330033 0.105738 0.11313828 0.20564792 0.09708223
0.3848188 -0.13651109 0.6989996
00000000: 4f75 963e e3ee 5a3b f049 cbbe 45ad c73e
00000010: e626 ba3d 41af 123d fee0 96be cff3 86bc
00000020: ed4d 863e 6c92 71bd 4f1c 663e dd8f 6e3d
00000030: c089 ab3e 06d1 1b3e d6da c33e 5974 21bf
00000040: 5f10 803c 8c04 8f3e 99a3 443e 2033 7bbb
00000050: 2a8d d83d 0bb5 e73d 5e95 523e 0cd3 c63d
00000060: f806 c53e 90c9 0bbe a3f1 323f

model.4.0.weight f4 [1, 1, 3, 3, 3]
0.29928836 0.26620516 -0.24068008 0.2912442 0.19955555 0.12067023 0.08600896 -0.4054157
0.067284256 0.18877545 -0.026713977 -0.019665549 0.4024235 0.5231175 -0.5133918 0.43058553
-0.047149286 -0.5290608 0.41047466 -0.017005758 -0.07292435 -0.25832796 0.30489075 0.0900125
-0.051309656 -0.003572905 0.15068687
00000000: 533c 993e 0b4c 883e d774 76be f61d 953e
00000010: 4a58 4c3e f421 f73d 7725 b03d a692 cfbe
00000020: 54cc 893d 5a4e 413e 45d7 dabc a519 a1bc
00000030: 740a ce3e 07eb 053f a56d 03bf b575 dc3e
00000040: 9c1f 41bd 8770 07bf bc29 d23e a94f 8bbc
00000050: 5d59 95bd 9043 84be a41a 9c3e 7958 b83d
00000060: 132a 52bd 6627 6abb a94d 1a3e

model.5.0.weight f4 [1, 1, 3, 3, 3]
0.3423295 0.44975343 -0.17677629 0.29685828 0.36130327 -0.16677788 0.37006688 0.011958791
0.17275247 0.35923752 -0.32114834 0.044069827 0.17932162 0.01827736 -0.062398564 0.08408664
-0.26255703 0.63043886 -0.08442947 0.18992536 -0.2879516 0.20543177 -0.20559984 0.4631162
-0.04122561 0.07901045 -0.36047217
00000000: d045 af3e 1546 e63e d804 35be cffd 973e
00000010: befc b83e d2c7 2abe 6879 bd3e ceee 433c
00000020: 06e6 303e fbed b73e 8e6d a4be 9082 343d
00000030: 16a0 373e 67ba 953c a395 7fbd 9e35 ac3d
00000040: e06d 86be 7164 213f 5ce9 acbd cb7b 423e
00000050: 646e 93be b55c 523e c488 52be 911d ed3e
00000060: 2fdc 28bd 3bd0 a13d cf8f b8be

model.6.0.weight f4 [1, 1, 3, 3, 3]
0.06917877 0.08106321 -0.16442594 -0.048584808 0.020317042 0.5128124 0.0042933756 0.18809043
-0.10440222 0.47518018 -0.19045025 -0.07944728 -0.23151329 -0.28400943 0.12022334 -0.1854908
-0.16453488 0.21211065 -0.4242628 0.044761762 -0.031915274 0.12063437 -0.17809504 -0.26415083
-0.3946809 0.16937622 0.45886824
00000000: 99ad 8d3d 7804 a63d 465f 28be dd00 47bd
00000010: ed6f a63c ac47 033f 72af 8c3b c79a 403e
00000020: d5d0 d5bd d14a f33e 6405 43be 41b5 a2bd
00000030: d211 6dbe af69 91be a837 f63d 4df1 3dbe
00000040: d57b 28be 8933 593e f938 d9be 1c58 373d
00000050: 97b9 02bd 270f f73d 8c5e 36be c73e 87be
00000060: 9d13 cabe f670 2d3e c7f0 ea3e

model.7.0.weight f4 [1, 1, 3, 3, 3]
0.0142181525 0.010836234 0.16218744 -0.24235824 -0.010520356 0.19053282 0.24542001 0.1256281
0.09966659 -0.25392634 -0.08729983 0.29979408 -0.067877874 0.093521595 0.4209301 -0.13456455
0.33050236 0.21338446 -0.12196716 0.22694607 0.08990459 -0.052631006 -0.01445286 0.46087858
-0.24383709 -0.046581388 -0.048180893
00000000: 41f3 683c 768a 313c 7714 263e c22c 78be
00000010: 925d 2cbc 091b 433e 624f 7b3e a7a4 003e
00000020: ff1d cc3d a202 82be 41ca b2bd 9c7e 993e
00000030: 8e03 8bbd 4088 bf3d 2684 d73e 4acb 09be
00000040: 9b37 a93e 7581 5a3e ebc9 f9bd 8d64 683e
00000050: e61f b83d 9c93 57bd b0cb 6cbc 47f8 eb3e
00000060: 6eb0 79be 20cc 3ebd 5459 45bd

model.8.0.weight f4 [1, 1, 3, 3, 3]
-0.18394311 0.13386674 0.31857905 0.13494095 0.072015986 -0.054478586 0.028063191 0.4088036
0.011498629 -0.65693855 -0.27200425 0.039011702 -0.43965232 -0.10323151 0.26568142 0.31983784
-0.18947937 -0.43633297 -0.83937484 -0.021477131 -0.21931307 -0.03848667 0.22159025 -0.3332357
0.27598873 0.007920282 0.19174068
00000000: 955b 3cbe 5d14 093e cb1c a33e f62d 0a3e
00000010: 1e7d 933d f024 5fbd c7e4 e53c b54e d13e
00000020: bf64 3c3c 202d 28bf 2444 8bbe bcca 1f3d
00000030: 1c1a e1be 0b6b d3bd 6507 883e c9c1 a33e
00000040: e106 42be 0967 dfbe 45e1 56bf cff0 afbc
00000050: 9b93 60be 33a4 1dbd 8ee8 623e df9d aabe
00000060: 654e 8d3e 12c4 013c ab57 443e

model.9.weight f4 [3, 1, 1, 1, 1]
-0.29845732 1.1832829 -0.11718468
00000000: 66cf 98be d075 973f 86fe efbd

model.9.bias f4 [3]
0.07336556 -0.072866045 -0.0739168
00000000: af40 963d cb3a 95bd b161 97bd
