test_output/simulate_job/site-2/model_epoch_3.pth (torch, 22193 bytes, 11 tensors)

model.0.0.weight f4 [1, 1, 3, 3, 3]
0	0xbe9f041c	-0.31057823
1	0xbe98e94e	-0.29865497
2	0xbdb2370a	-0.08701904
3	0x3e92ae29	0.286485
4	0xbf0f864b	-0.5606429
5	0xbf1a1896	-0.60193765
6	0x3f046f62	0.51732457
7	0xbdd4bf63	-0.103880666
8	0x3dffaa02	0.12483598
9	0x3e89ff63	0.26952657
10	0x3e50708c	0.20355433
11	0xbe907cf1	-0.28220323
12	0xbdf99182	-0.121859565
13	0xbe82c82a	-0.25543338
14	0xbe06aea1	-0.13152553
15	0xbd07e6b8	-0.033179015
16	0xbe8b8e31	-0.2725692
17	0xbe00f92e	-0.12595055
18	0x3f0742e9	0.5283647
19	0xbd0bd41b	-0.034137826
20	0xbeec3298	-0.4613235
21	0x3dfff68c	0.12498197
22	0x3d809661	0.062786825
23	0xbc1686f7	-0.009187452
24	0x3e0181d7	0.12647186
25	0xbdd92063	-0.106018804
26	0xbbe0d394	-0.0068611596

model.1.0.weight f4 [1, 1, 3, 3, 3]
0	0x3ed5f124	0.41785538
1	0xbf05496b	-0.5206515
2	0x3ebc832c	0.36818826
3	0x3c3409ef	0.0109886965
4	0x3f197b29	0.5995355
5	0xbe040260	-0.12891531
6	0x3f1774d9	0.5916267
7	0xbe80bc72	-0.25143772
8	0xbe2b6486	-0.16737565
9	0x3db3335b	0.0875003
10	0xbd9c8439	-0.07642407
11	0x3e3ed289	0.18635
12	0x3eece1dc	0.46266067
13	0xbe333c05	-0.17503364
14	0x3e54bfb1	0.2077625
15	0xbe8a3491	-0.2699323
16	0xbe62fb27	-0.2216612
17	0xbe28a5b2	-0.16469458
18	0x3c091944	0.00836784
19	0xbee5012c	-0.44727457
20	0xbf1b9ed6	-0.6078924
21	0xbe467561	-0.19380714
22	0x3d018402	0.031620033
23	0x3e76b906	0.24094018
24	0x3e7d6c84	0.24748427
25	0x3eed4086	0.4633829
26	0x3f15cb4a	0.5851332

model.2.0.weight f4 [1, 1, 3, 3, 3]
0	0x3e1cbe93	0.15307073
1	0xbe4b46e5	-0.19851263
2	0xbd637505	-0.05553152
3	0xbd3352d5	-0.043780167
4	0x3e8b06be	0.2715358
5	0x3d6bf80f	0.057609614
6	0x3e34dffc	0.17663568
7	0x3e918b9a	0.2842682
8	0xbeab0dc7	-0.3340895
9	0x3e57b6cf	0.2106583
10	0xbd8cf045	-0.06881765
11	0xbe83e2b3	-0.25758895
12	0xbdec847f	-0.11548709
13	0xbcea6ca8	-0.028616264
14	0x3d44a53a	0.048009135
15	0xbec3ce85	-0.382435
16	0x3ce32639	0.027728187
17	0x3ea25c24	0.31710923
18	0xbe3dc06e	-0.18530437
19	0x3e9a8d5a	0.30185968
20	0xbe333cba	-0.17503634
21	0xbe0c5eec	-0.13708085
22	0xbe396443	-0.18104653
23	0xbe2e7dfd	-0.17040248
24	0x3e8efb79	0.27926233
25	0xbeb143c5	-0.34622017
26	0x3cad5084	0.021156557

model.3.0.weight f4 [1, 1, 3, 3, 3]
0	0x3e99f76c	0.3007158
1	0x39e5c075	0.00043821675
2	0xbec80945	-0.39069572
3	0x3ec5a7fe	0.3860473
4	0x3dc6c53c	0.09705588
5	0x3d0fd266	0.03511276
6	0xbe94604d	-0.28979722
7	0xbc9afc96	-0.01891927
8	0x3e8ac754	0.271052
9	0xbd76de20	-0.06027043
10	0x3e6bbb32	0.23020628
11	0x3d6212b7	0.05519363
12	0x3eae4684	0.34038174
13	0x3e19c47c	0.15016359
14	0x3ec7861d	0.38969508
15	0xbf219de8	-0.6313157
16	0x3cb01545	0.021494517
17	0x3e8e3a13	0.27778682
18	0x3e46a7da	0.19399968
19	0xbbb382ae	-0.0054782247
20	0x3de44231	0.111454375
21	0x3de44687	0.111462645
22	0x3e57ecd0	0.2108643
23	0x3dc28acf	0.09499132
24	0x3ec795a7	0.38981363
25	0xbe0c82f8	-0.13721836
26	0x3f34b39b	0.70586556

model.4.0.weight f4 [1, 1, 3, 3, 3]
0	0x3e9cf90e	0.30658764
1	0x3e8c3b26	0.27388877
2	0xbe6f5cee	-0.23375294
3	0x3e98be3c	0.29832637
4	0x3e549e19	0.20763434
5	0x3e040756	0.12893423
6	0x3dbf5c15	0.09343735
7	0xbecbcd9d	-0.39805308
8	0x3d9a17f4	0.075241
9	0x3e46eb59	0.19425716
10	0xbca4d509	-0.020121114
11	0xbc4bf8ac	-0.012449425
12	0x3ed125f7	0.40849277
13	0x3f07b1b6	0.5300554
14	0xbf016fd4	-0.5056126
15	0x3ee0076f	0.4375567
16	0xbd22b91b	-0.03972731
17	0xbf055098	-0.520761
18	0x3ecf9ee8	0.40550923
19	0xbc920fd8	-0.01782982
20	0xbd890f85	-0.06692413
21	0xbe831f73	-0.2560993
22	0x3e9b8091	0.30371526
23	0x3dc44615	0.095836796
24	0xbd4ec839	-0.050483916
25	0x3aeae16e	0.0017919966
26	0x3e2328e3	0.15933566

model.5.0.weight f4 [1, 1, 3, 3, 3]
0	0x3ead5ca1	0.33859733
1	0x3ee6bf14	0.45067656
2	0xbe34425d	-0.1760344
3	0x3e995891	0.29950383
4	0x3eb731bf	0.3578014
5	0xbe255ee0	-0.16149473
6	0x3ebb9cb1	0.36642984
7	0x3c9025ee	0.017596211
8	0x3e2ff6e8	0.17184031
9	0x3eb89089	0.36047772
10	0xbea5559b	-0.32291874
11	0x3d4bc870	0.0497517
12	0x3e34e23e	0.1766443
13	0x3cc34f57	0.023841543
14	0xbd8269b1	-0.06367815
15	0x3db6671e	0.08906387
16	0xbe871bf1	-0.26388505
17	0x3f23493e	0.63783634
18	0xbdb228dd	-0.086992
19	0x3e47d6a8	0.19515479
20	0xbe940aa6	-0.28914374
21	0x3e5586ec	0.2085225
22	0xbe5492de	-0.2075915
23	0x3ef02d94	0.46909773
24	0xbd31f2f8	-0.043444604
25	0x3dadbb1f	0.08482956
26	0xbeb8a75a	-0.3606518

model.6.0.weight f4 [1, 1, 3, 3, 3]
0	0x3d8cfb4e	0.0688387
1	0x3da2fa2a	0.07957871
2	0xbe29a05b	-0.16565077
3	0xbd4c2eb3	-0.049849223
4	0x3ca03e16	0.019560855
5	0x3f02f494	0.51154447
6	0x3b7014a5	0.00366334
7	0x3e3fff00	0.18749619
8	0xbdd9e8a8	-0.10640079
9	0x3ef39f51	0.47582486
10	0xbe434010	-0.19067407
11	0xbda5f5a3	-0.08103492
12	0xbe6d26cd	-0.23159333
13	0xbe91f21e	-0.28505033
14	0x3df47fcc	0.11938438
15	0xbe3e9991	-0.18613268
16	0xbe28ca6e	-0.16483471
17	0x3e58546c	0.21125954
18	0xbed8a774	-0.42315257
19	0x3d3b0a9a	0.045664407
20	0xbd058aca	-0.032603063
21	0x3df8ba1b	0.12144872
22	0xbe369610	-0.17830682
23	0xbe87cbb8	-0.26522613
24	0xbeca05f0	-0.39457655
25	0x3e2c5fd6	0.16833434
26	0x3eea908f	0.45813414

model.7.0.weight f4 [1, 1, 3, 3, 3]
0	0x3cafede5	0.021475742
1	0x3c8e2c13	0.017355
2	0x3e2b4c7b	0.16728394
3	0xbe732d22	-0.23747686
4	0xbb9b958e	-0.004748053
5	0x3e494a0d	0.19657154
6	0x3e80af3f	0.25133702
7	0x3e06edf4	0.1317671
8	0x3ddcfb1e	0.10790084
9	0xbe7db9ca	-0.24777904
10	0xbda66bf5	-0.0812606
11	0x3e9d159f	0.30680558
12	0xbd7db178	-0.061936826
13	0x3dcd57eb	0.10026535
14	0x3eda3126	0.42615622
15	0xbe034180	-0.12817955
16	0x3eac2b11	0.33626607
17	0x3e60ba29	0.21946014
18	0xbdeb7dee	-0.114986286
19	0x3e6a9f02	0.22912219
20	0x3dbdf085	0.09274391
21	0xbd3abf78	-0.045592755
22	0xbbd93200	-0.006628275
23	0x3eef8210	0.46778917
24	0xbe735e9f	-0.23766564
25	0xbd27ae85	-0.04093792
26	0xbd2fe95e	-0.042947166

model.8.0.weight f4 [1, 1, 3, 3, 3]
0	0xbe412a0f	-0.188637
1	0x3e0426c3	0.12905411
2	0x3ea054d8	0.3131473
3	0x3e0494fc	0.12947458
4	0x3d87b3a0	0.066260576
5	0xbd78069a	-0.06055317
6	0x3cb4f6c0	0.022090316
7	0x3ece4291	0.4028516
8	0x3babebb4	0.005246604
9	0xbf294280	-0.66117096
10	0xbe8dd870	-0.2770419
11	0x3d091f2c	0.033476993
12	0xbee39e3c	-0.4445666
13	0xbdde213f	-0.10846185
14	0x3e850dd9	0.25987127
15	0x3ea0e665	0.31425777
16	0xbe48201a	-0.19543496
17	0xbee2a857	-0.44269058
18	0xbf580616	-0.84384286
19	0xbcdafc81	-0.026731731
20	0xbe6644e3	-0.22487216
21	0xbd309acc	-0.043116376
22	0x3e5da1ea	0.21643797
23	0xbead8bc8	-0.33895707
24	0x3e8aa1a6	0.27076453
25	0x3b10bbf4	0.0022084685
26	0x3e3e166d	0.18563242

model.9.weight f4 [3, 1, 1, 1, 1]
0	0xbe961b40	-0.29317665
1	0x3f96d5ac	1.1783957
2	0xbdeb2d1a	-0.11483212

model.9.bias f4 [3]
0	0x3da128c2	0.07869102
1	0xbda01d40	-0.07818079
2	0xbda24ef7	-0.079252176
