test_output/simulate_job/site-2/model_epoch_0.pth (torch, 22193 bytes, 11 tensors)

model.0.0.weight f4 [1, 1, 3, 3, 3]
0	0xbe9fc209	-0.31202725
1	0xbe9801a9	-0.29688767
2	0xbdaeecec	-0.08541283
3	0x3e950ecd	0.29112855
4	0xbf114916	-0.56752145
5	0xbf1dbae6	-0.6161331
6	0x3f06a73f	0.5259895
7	0xbdc332d0	-0.09531176
8	0x3e053bbc	0.13011068
9	0x3e858f82	0.2608605
10	0x3e4afd2b	0.19823138
11	0xbe8dfde0	-0.27732754
12	0xbe0a2bbd	-0.13493247
13	0xbe8a0ceb	-0.2696298
14	0xbe112206	-0.14173135
15	0xbd1852ff	-0.037188526
16	0xbe8f5365	-0.27993312
17	0xbe035698	-0.12826002
18	0x3f03d946	0.5150341
19	0xbd2c40ab	-0.04205386
20	0xbeeb4eb8	-0.45958495
21	0x3de50936	0.111833975
22	0x3d6ef2fd	0.0583372
23	0xbb8f5c7e	-0.0043750396
24	0x3df6003b	0.12011763
25	0xbddabade	-0.10680173
26	0xbad16ffe	-0.0015978811

model.1.0.weight f4 [1, 1, 3, 3, 3]
0	0x3ed7b90a	0.4213336
1	0xbf086b7f	-0.53289026
2	0x3eb458f5	0.3522412
3	0x3b053b53	0.002032955
4	0x3f159980	0.5843735
5	0xbe126f93	-0.14300375
6	0x3f14d75b	0.58141106
7	0xbe869e3b	-0.26292595
8	0xbe319faa	-0.17346063
9	0x3dcb51f4	0.09927741
10	0xbda3b9ac	-0.079943985
11	0x3e2da437	0.16957174
12	0x3eee58f2	0.46552235
13	0xbe421333	-0.18952636
14	0x3e42e668	0.19033206
15	0xbe8fe9c3	-0.28108034
16	0xbe72aba3	-0.23698287
17	0xbe378b5d	-0.17924257
18	0x3c28fa82	0.010313632
19	0xbee69791	-0.4503751
20	0xbf1ed746	-0.6204723
21	0xbe43629c	-0.19080585
22	0x3cb83afd	0.022489065
23	0x3e652767	0.22378312
24	0x3e76d89a	0.24106064
25	0x3ee4f8ac	0.44720972
26	0x3f117273	0.5681526

model.2.0.weight f4 [1, 1, 3, 3, 3]
0	0x3e129a9b	0.1431679
1	0xbe598907	-0.21243678
2	0xbd940c8e	-0.07228957
3	0xbd7eebcd	-0.062236596
4	0x3e866f7a	0.26256925
5	0x3d2be46a	0.04196588
6	0x3e278e6e	0.16362926
7	0x3e891c8a	0.26779586
8	0xbeb32843	-0.34991655
9	0x3e460c96	0.19340739
10	0xbda767cf	-0.08174097
11	0xbe8a5828	-0.27020383
12	0xbe0294f4	-0.12752134
13	0xbd3aa9a3	-0.045571934
14	0x3d070513	0.032963824
15	0xbecdbfd7	-0.40185425
16	0x3c33b761	0.010969014
17	0x3e9ae764	0.30254662
18	0xbe50edfc	-0.20403284
19	0x3e924aa6	0.28572577
20	0xbe3c9c2a	-0.18418947
21	0xbe1f0224	-0.1552816
22	0xbe48e525	-0.19618662
23	0xbe3dee68	-0.18547976
24	0x3e8a3109	0.26990536
25	0xbeba09a8	-0.36335492
26	0x3b94f64c	0.0045459624

model.3.0.weight f4 [1, 1, 3, 3, 3]
0	0x3e97e991	0.29670385
1	0x3c7e09c8	0.015505262
2	0xbecddcd6	-0.40207547
3	0x3ece5840	0.40301704
4	0x3da847d0	0.08216822
5	0x3d42b3f0	0.047534883
6	0xbe98c11a	-0.29834825
7	0xbb7dc049	-0.0038719347
8	0x3e846338	0.25856948
9	0xbd462d21	-0.048382882
10	0x3e5bced8	0.21465623
11	0x3d914804	0.07093814
12	0x3ea5976e	0.32342094
13	0x3e27825a	0.16358319
14	0x3ebd2a00	0.36946106
15	0xbf1eb4ed	-0.6199482
16	0x3b376015	0.0027980853
17	0x3e949dd6	0.2902667
18	0x3e430909	0.19046415
19	0x3bf17584	0.0073687453
20	0x3dc2819b	0.094973765
21	0x3dfdfc05	0.124015845
22	0x3e464f25	0.19366129
23	0x3de00f44	0.10940412
24	0x3ebf86a9	0.37407425
25	0xbe01131b	-0.12604944
26	0x3f2f6c73	0.68524855

model.4.0.weight f4 [1, 1, 3, 3, 3]
0	0x3e959820	0.29217625
1	0x3e846d6f	0.2586474
2	0xbe7fb715	-0.24972184
3	0x3e8ffecf	0.2812409
4	0x3e3eeaba	0.18644229
5	0x3dd6ddb4	0.10491505
6	0x3da67475	0.08127681
7	0xbed56f6b	-0.41686568
8	0x3d4c6850	0.049904168
9	0x3e39c3d2	0.18141106
10	0xbd111cce	-0.03542786
11	0xbcaa4c5d	-0.020788366
12	0x3ec8108d	0.39075127
13	0x3f02d257	0.51102203
14	0xbf0531bd	-0.5202902
15	0x3ed9943d	0.4249591
16	0xbd696fcd	-0.056991387
17	0xbf093de7	-0.5361008
18	0x3ed951f2	0.42445332
19	0xbbe95afe	-0.007121443
20	0xbd90af37	-0.070646696
21	0xbe8235af	-0.25431582
22	0x3ea1d010	0.31604052
23	0x3dc209d5	0.094745316
24	0xbd31c373	-0.043399286
25	0xbb967d68	-0.0045925863
26	0x3e1d0ea6	0.15337619

model.5.0.weight f4 [1, 1, 3, 3, 3]
0	0x3eb54609	0.35404995
1	0x3ee97908	0.45600152
2	0xbe2e261a	-0.17006722
3	0x3e98193d	0.29706755
4	0x3ebf0766	0.37310332
5	0xbe2a142a	-0.16609254
6	0x3ec34dee	0.38145393
7	0x3c1835c7	0.009290165
8	0x3e3a6019	0.18200721
9	0x3eb9ade1	0.36265472
10	0xbe9f0c82	-0.3106423
11	0x3d1fbc20	0.03899777
12	0x3e42cc99	0.1902336
13	0x3beb1088	0.0071736015
14	0xbd562d53	-0.05228932
15	0x3da1abbe	0.07894085
16	0xbe81278f	-0.25225493
17	0x3f2103ac	0.6289623
18	0xbd97021b	-0.073734485
19	0x3e3b5909	0.18295683
20	0xbe8e27b1	-0.27764657
21	0x3e54c0fa	0.2077674
22	0xbe478720	-0.1948514
23	0x3ee79180	0.45228195
24	0xbcff97a7	-0.031200243
25	0x3d8cb940	0.06871271
26	0xbeb3befc	-0.35106647

model.6.0.weight f4 [1, 1, 3, 3, 3]
0	0x3d88a15e	0.06671403
1	0x3da2a2e6	0.07941227
2	0xbe2afa8b	-0.16697137
3	0xbd4dd58f	-0.050252493
4	0x3c91e554	0.017809547
5	0x3f02a245	0.51028854
6	0x3aeecd06	0.0018219061
7	0x3e3ddc1e	0.18541
8	0xbdd9ad35	-0.1062874
9	0x3ef183e1	0.47170928
10	0xbe45bb92	-0.19309834
11	0xbda721e6	-0.081607625
12	0xbe6fc435	-0.23414691
13	0xbe9262c8	-0.2859099
14	0x3df07508	0.11741072
15	0xbe402a31	-0.18766095
16	0xbe2b561a	-0.16732064
17	0x3e5640a2	0.20923093
18	0xbedb16a9	-0.42790726
19	0x3d27ac56	0.040935837
20	0xbd0df736	-0.034659587
21	0x3defd7bf	0.11711072
22	0xbe3918f1	-0.1807592
23	0xbe8872b8	-0.26650023
24	0xbecb82ba	-0.39748174
25	0x3e2b73f9	0.16743459
26	0x3ee96b90	0.45589876

model.7.0.weight f4 [1, 1, 3, 3, 3]
0	0x3c46ac7b	0.0121260835
1	0xbad320f2	-0.0016107841
2	0x3e19c584	0.15016752
3	0xbe7b1a43	-0.24521737
4	0xbccfad45	-0.025351176
5	0x3e331e83	0.17492108
6	0x3e6bc308	0.23023617
7	0x3de251bd	0.110507466
8	0x3da5d20f	0.08096706
9	0xbe81767a	-0.25285703
10	0xbda8a879	-0.082352586
11	0x3e94b5f5	0.29045072
12	0xbd819d11	-0.06328786
13	0x3da70f3b	0.08157202
14	0x3ed04bcc	0.40682828
15	0xbe15f906	-0.14645776
16	0x3ea10e2e	0.3145613
17	0x3e4cb97b	0.1999263
18	0xbdf9097f	-0.12160014
19	0x3e7083ea	0.23487821
20	0x3dca20ac	0.09869513
21	0xbd54defb	-0.051970463
22	0xbc67581f	-0.014120131
23	0x3ee44676	0.44585007
24	0xbe78ce73	-0.24297504
25	0xbd648b1f	-0.05579674
26	0xbd780c9b	-0.060558897

model.8.0.weight f4 [1, 1, 3, 3, 3]
0	0xbe318375	-0.17335303
1	0x3e12db7c	0.14341539
2	0x3ea85377	0.3287618
3	0x3e16b961	0.14719154
4	0x3dac17ed	0.08403001
5	0xbd2ca53a	-0.04214976
6	0x3d297d77	0.04137942
7	0x3ed80945	0.42194572
8	0x3cccbd1d	0.02499252
9	0xbf259618	-0.6468215
10	0xbe856a70	-0.26057768
11	0x3d4fde32	0.05074901
12	0xbedb37c6	-0.4281599
13	0xbdbd5148	-0.09244019
14	0x3e8e26ed	0.27764073
15	0x3eaa7781	0.332943
16	0xbe34814c	-0.17627448
17	0xbed85326	-0.42250937
18	0xbf541c14	-0.82855344
19	0xbc0e75c5	-0.008695071
20	0xbe53b113	-0.20673017
21	0xbce0c17e	-0.027436014
22	0x3e6ed39e	0.23322913
23	0xbea49218	-0.3214271
24	0x3e939052	0.28821045
25	0x3ca6ef2e	0.020377722
26	0x3e522c0c	0.20524615

model.9.weight f4 [3, 1, 1, 1, 1]
0	0xbe9ffd50	-0.3124795
1	0x3f990a9d	1.1956364
2	0xbdfbc7b9	-0.122939534

model.9.bias f4 [3]
0	0x3d76bd01	0.060238842
1	0xbd749a9c	-0.05971776
2	0xbd7913f5	-0.060810048
