test_output/simulate_job/site-2/model_epoch_1.pth (torch, 22193 bytes, 11 tensors)

model.0.0.weight f4 [1, 1, 3, 3, 3]
00000000: 35d8 9abe 7ce4 94be 94f0 a7bd 2ce8 973e
00000010: 6a93 0fbf 0fdd 1bbf 5b25 073f 5cd9 c0bd
00000020: 6ee0 063e bda2 8a3e 07d6 523e 79fa 8bbe
00000030: 3f4c 00be bced 85be 6ad1 0abe 57d0 efbc
00000040: bc05 8cbe 1d77 febd 6c5a 063f 1f0f 06bd
00000050: 63c5 e7be c27c f83d 8201 853d 3307 8aba
00000060: 1e2d 043e d3f0 cfbd 9c49 823a
-0.30243078 -0.2908057 -0.082001835 0.2966932 -0.5608431 -0.60884184 0.52791375 -0.09416458
0.1317155 0.27077284 0.20589457 -0.27339533 -0.12529086 -0.2615794 -0.13556448 -0.029274149
-0.27348125 -0.12425063 0.5248172 -0.032729264 -0.45267782 0.12133171 0.06494428 -0.001053071
0.12907836 -0.101533554 0.000994015

model.1.0.weight f4 [1, 1, 3, 3, 3]
00000000: 05b3 d33e a15c 08bf 02e3 b53e e1ff b93a
00000010: b833 163f e7af 11be e9ec 143f be9b 86be
00000020: 1b3d 37be 1cc0 b73d 3c9c b0bd 8a14 313e
00000030: ae9f ea3e 342e 40be 7de0 463e d59e 8fbe
00000040: 01d5 6fbe f5c0 36be d322 613a c183 eabe
00000050: f320 1fbf a44e 4cbe 9334 9f3c bd14 693e
00000060: ef7f 723e d965 e63e a45c 123f
0.4134752 -0.5326634 0.35524756 0.0014190638 0.58672667 -0.14227258 0.58173996 -0.26290697
-0.17894404 0.08972189 -0.08623549 0.17292991 0.4582495 -0.18767625 0.19421573 -0.28050867
-0.23421098 -0.17847045 0.0008588258 -0.45803645 -0.6215965 -0.19951874 0.019434249 0.22761817
0.23681615 0.4499958 0.5717261

model.2.0.weight f4 [1, 1, 3, 3, 3]
00000000: 576c 1c3e d2c6 4fbe b8f1 7fbd 41ce 56bd
00000010: 72ec 8a3e 68b4 523d add1 303e 3be5 8d3e
00000020: c720 aebe fd06 503e 60f3 92bd 7c6b 85be
00000030: 0c25 f1bd 095c 12bd 3fff 2f3d eca0 c8be
00000040: 03bb ab3c e9ed 9f3e dab3 46be ea58 973e
00000050: 22f7 32be d92b 15be fec1 3ebe 181b 34be
00000060: 1dee 8d3e 590c b5be 60ac 683c
0.15275703 -0.20290688 -0.06248638 -0.052442793 0.27133518 0.05144158 0.17267485 0.2771395
-0.34009382 0.20315166 -0.07175326 -0.26058567 -0.11774644 -0.035732303 0.04296803 -0.39185274
0.020963198 0.312362 -0.19404545 0.29560024 -0.17477086 -0.14567508 -0.1862869 -0.1758846
0.2772073 -0.35360983 0.014201254

model.3.0.weight f4 [1, 1, 3, 3, 3]
00000000: 1cdb 923e 4cbe b13b ab8b cebe 0c8a c93e
00000010: ebde ab3d f1c5 193d 153e 99be 6f95 62bc
00000020: f10d 823e a315 6fbd f78e 603e e868 7a3d
00000030: 6861 a83e 1c60 1d3e 184f c03e b042 21bf
00000040: b8d0 223c 54b5 8f3e 0bde 423e 7114 25bb
00000050: 2bb1 cd3d 41fd e93d 9f15 4d3e bed8 cb3d
00000060: be69 c23e 2057 0bbe 17c9 313f
0.28682792 0.0054242965 -0.40340933 0.39363134 0.083921276 0.037542287 -0.29930177 -0.013829573
0.2540126 -0.058370244 0.21929537 0.061135203 0.32886815 0.15368694 0.37560344 -0.6299238
0.009937458 0.2806803 0.19030015 -0.0025189186 0.10043558 0.114252575 0.20027779 0.0995345
0.379713 -0.13607454 0.69447464

model.4.0.weight f4 [1, 1, 3, 3, 3]
00000000: 9100 953e bbe3 833e 5c52 7ebe ca5e 913e
00000010: acd0 433e 987f e43d c36a a13d cc23 d3be
00000020: 8dd2 713d a5cf 3a3e 492f 0cbd 7f48 e2bc
00000030: daf5 ca3e 043f 043f d7ac 05bf ebbe d93e
00000040: 7268 58bd a246 09bf e033 d43e 3880 86bc
00000050: 28bd 9ebd 53d5 85be 2a3c 9d3e 0790 b23d
00000060: 3e40 53bd 6e33 e9bb 4527 163e
0.29101995 0.25759682 -0.24836105 0.2839263 0.19122571 0.11157149 0.07881691 -0.41238248
0.059038687 0.18243273 -0.034224782 -0.02762246 0.39640695 0.51658654 -0.5221686 0.4252847
-0.05283398 -0.536234 0.41445827 -0.016418561 -0.077509224 -0.26139316 0.30709964 0.08718877
-0.051574938 -0.0071167266 0.14663418

model.5.0.weight f4 [1, 1, 3, 3, 3]
00000000: 2c48 b03e 1a90 e43e 442d 38be 2c12 943e
00000010: a809 ba3e f0f7 31be 215e be3e 04d4 933b
00000020: 6a36 303e 3704 b53e 2a31 a4be 74d5 143d
00000030: 31d2 383e 46e5 313c b78d 7ebd c795 9b3d
00000040: f34b 86be 8f09 1f3f 8977 abbd 0ee3 3b3e
00000050: a26f 93be 05c2 4b3e 52ba 51be a7fe e83e
00000060: aecf 28bd df0a 933d 2bda b8be
0.34430063 0.4464119 -0.17986017 0.28920114 0.36335492 -0.17379737 0.3718119 0.004511358
0.17208257 0.35354778 -0.3206876 0.036336377 0.18048932 0.010857886 -0.06214687 0.07596927
-0.2622982 0.6212396 -0.08372409 0.18348333 -0.28796107 0.19898231 -0.20481232 0.45506784
-0.041213684 0.07179808 -0.3610395

model.6.0.weight f4 [1, 1, 3, 3, 3]
00000000: ba19 9d3d 5319 b73d 15c3 20be 72d6 24bd
00000010: 6fbc e33c 592f 053f 9c71 413c 760b 483e
00000020: e236 c5bd e59f f63e 1480 3bbe 2f33 92bd
00000030: 5385 65be e543 8dbe d874 023e 2ede 35be
00000040: aa25 21be 016e 603e 9efd d5be f97c 503d
00000050: 3bd5 c9bc 0224 023e 60d8 2ebe c753 83be
00000060: b965 c6be 3ab3 353e f288 ee3e
0.076709226 0.08940377 -0.15699418 -0.040243573 0.027799813 0.5202537 0.011806872 0.19535622
-0.09629609 0.48168865 -0.18310577 -0.07138669 -0.2241414 -0.27590862 0.12739885 -0.17760536
-0.15737024 0.21916963 -0.41795057 0.050900433 -0.024637809 0.12709048 -0.17074728 -0.25649855
-0.38749483 0.17744151 0.46588856

model.7.0.weight f4 [1, 1, 3, 3, 3]
00000000: 8229 be3b 8101 223b 7729 1f3e c964 7ebe
00000010: 931a 94bc a589 3b3e 464b 733e 8d9d f13d
00000020: 6bc9 b73d 2f84 85be f467 bcbd 8c9b 943e
00000030: edb6 95bd aaff ac3d e6cb d33e f479 12be
00000040: e932 a53e 418b 523e 1857 05be 20ee 683e
00000050: 0fba b73d 0712 79bd 0954 bebc ec47 e73e
00000060: 64f6 7fbe ec8e 59bd 7d6b 60bd
0.005803288 0.0024720135 0.15543161 -0.24843134 -0.018079078 0.18314226 0.23759183 0.117976286
0.08973964 -0.2607741 -0.09199515 0.29024923 -0.07310281 0.084472016 0.413665 -0.14304334
0.32265404 0.20560934 -0.13021505 0.22747087 0.08971035 -0.060808208 -0.02323343 0.4517206
-0.24996334 -0.053114817 -0.05479001

model.8.0.weight f4 [1, 1, 3, 3, 3]
00000000: da7b 37be 02ec 0d3e 82c9 a53e c2c5 0f3e
00000010: a657 9f3d e851 46bd 8d52 0b3d 1b7a d43e
00000020: 209c 923c d6fb 26bf fc70 88be 248e 373d
00000030: 896f debe e18a c8bd 6d14 8b3e d8c1 a63e
00000040: 19a5 3bbe f707 dcbe 2e9d 55bf 51f2 7cbc
00000050: 7755 5abe 44f5 08bd f6ae 683e ae9e a7be
00000060: 7423 903e f689 643c 2403 4b3e
-0.1791834 0.13859561 0.323803 0.14040282 0.077803895 -0.048417956 0.034014273 0.4149941
0.017896712 -0.6522802 -0.266487 0.04481329 -0.4344447 -0.09792114 0.2716402 0.32569766
-0.18324699 -0.42974827 -0.8344296 -0.015438632 -0.21321665 -0.03343703 0.22722992 -0.3273825
0.2815205 0.013948908 0.19825417

model.9.weight f4 [3, 1, 1, 1, 1]
00000000: b21d 9cbe a227 983f 00b4 f1bd
-0.30491406 1.1887095 -0.118019104

model.9.bias f4 [3]
00000000: 78ff 893d 02ff 88bd b91a 8bbd
0.0673818 -0.06689264 -0.06792206
