test_output/simulate_job/site-1/model_epoch_2.pth (torch, 22193 bytes, 11 tensors)

model.0.0.weight f4 [1, 1, 3, 3, 3]
00000000: b322 9f3d 463b 963d 1684 5cbd bec4 ecbd
00000010: badc 27bb 225c 66be 3d16 c83e 51db 5b3d
00000020: ba90 70be d4d9 22bd 7845 99bd eb39 023e
00000030: 9cf2 ea3d c295 37be cd2a 22be c42a 923e
00000040: 1332 81bd 3571 693c 3a9e 14be e1fe 0c3e
00000050: 2a17 083f d9cd be3e e6bf a6bd 6147 ffbd
00000060: e4d2 c8bd fdb6 563d 5491 13bc
0.0777029 0.07335524 -0.053836904 -0.11560963 -0.002561374 -0.22496083 0.39079466 0.053675953
-0.23492709 -0.03975852 -0.07483953 0.12717406 0.11472055 -0.17928222 -0.1583664 0.28548253
-0.06308379 0.014248182 -0.14513484 0.13769104 0.53160346 0.37266424 -0.081420705 -0.12464786
-0.09805849 0.052420605 -0.009006817

model.1.0.weight f4 [1, 1, 3, 3, 3]
00000000: 95cb f53d cd72 01be d8a6 893e b6eb c33e
00000010: 9b6c b1be 53e1 3ebf 7758 3fbe e34a c6bd
00000020: 26fc f93e e73b 163c 2b57 253e 0a80 d83e
00000030: 4c4c f7be ffd2 0abf f957 c03d 4734 bdbd
00000040: df84 863e acb6 00bd aace 38be bd65 2f3b
00000050: 90a1 9c3e eae5 bd3e 801c f73d 0432 17be
00000060: 2c06 0fbe a562 0f3e 60f1 29bc
0.12001721 -0.1264145 0.26885104 0.3826577 -0.34653172 -0.7456257 -0.1868609 -0.09682252
0.48825186 0.009169555 0.16146533 0.42285186 -0.48300397 -0.54228204 0.093917795 -0.09238487
0.26273248 -0.03142421 -0.18047586 0.0026763522 0.30592012 0.37089473 0.12065983 -0.14765173
-0.13967198 0.14002474 -0.01037249

model.2.0.weight f4 [1, 1, 3, 3, 3]
00000000: 26f3 8d3e 3ddf 9cbd 812a cc3d 7810 82be
00000010: c520 063e 1038 a13e 79a1 0e3f 5c28 7b3e
00000020: a0ef b03d 063c 6ebe 2399 e83e e2d2 a1be
00000030: 5497 c33e 82b3 f7be 22db 533e a4b4 b03d
00000040: 8abc 5bbd a298 4bbc defd 563e 8ddc 183e
00000050: bad0 d23e ffcd 1dbe abba 8d3e b5a5 c33e
00000060: bca0 f83d 47da a63d f40d 7b3e
0.2772457 -0.07659767 0.099690445 -0.2540319 0.13098438 0.31488085 0.5571514 0.24527115
0.08639455 -0.23265085 0.45429334 -0.31606203 0.38201392 -0.4837914 0.20689061 0.086282045
-0.0536466 -0.012426527 0.2099528 0.14927883 0.4117487 -0.15410613 0.2768148 0.38212362
0.12140033 0.08147102 0.24517041

model.3.0.weight f4 [1, 1, 3, 3, 3]
00000000: 5306 cfbe f2b7 773e 27f1 a0be edf8 d4bb
00000010: 03ec e0be 2869 85be 376d ac3d f2ef 8a3e
00000020: acb6 823d 8229 6ebe 4eb7 943e 7411 f2bd
00000030: a5fd bfbd db6c a8be 0e82 6d3e 39c9 833c
00000040: fd6d 243e be2e e73e 9742 d63e 21d2 02be
00000050: 8cca 7fbe f9dc d1bd be29 173d 3e3c 0b3e
00000060: 9a3c aabd 509d 233f d9a2 94be
-0.40434512 0.24191263 -0.31433985 -0.006499401 -0.43930063 -0.2605679 0.084192686 0.2713619
0.06382498 -0.23258021 0.290461 -0.11819735 -0.09374551 -0.3289555 0.23194143 0.016087161
0.16057582 0.4515285 0.4184768 -0.1277547 -0.24979609 -0.10247225 0.036905043 0.135972
-0.0831234 0.63911915 -0.29030493

model.4.0.weight f4 [1, 1, 3, 3, 3]
00000000: f0ab cfbe e35f 903e 78ff a43e b008 033d
00000010: ac21 cdbd d400 0e3e 573f f83e 9725 66bd
00000020: 8760 82be 6867 70be 42ff 75be 2bdc 0fbe
00000030: 92ec 8dbe 2d1f 48be 3c0b 5c3f 7b37 673e
00000040: c92a a23d d83f 25be b1c4 923e d422 093e
00000050: 67fe afbe 3620 9bbe dd1e 963d e934 633d
00000060: 9280 163d d145 d3bd f6cb 57bc
-0.40560865 0.28198156 0.32226157 0.031990707 -0.10016188 0.13867503 0.48485824 -0.056188192
-0.2546427 -0.23476946 -0.24023154 -0.14048831 -0.2771955 -0.19543143 0.8595464 0.22579758
0.07918317 -0.16137636 0.2866569 0.13392192 -0.3437378 -0.30298012 0.073301055 0.05547038
0.036743708 -0.10316051 -0.013171187

model.5.0.weight f4 [1, 1, 3, 3, 3]
00000000: c706 9a3e 1e49 c93d 3087 bbbe f3bf 2fbe
00000010: 8a8b 40bd 1f8d b03d ef68 f9bd ebcf f4bd
00000020: debe 443e 4298 f8bc e1e5 98be 4188 653e
00000030: 5dce 29be 6c7c da3e a74b 03bf af15 b0bd
00000040: 7c4e 9d3e ecfc 063f 2220 b83e c4bc b83e
00000050: 7c58 9ebe ded0 fb3e 5947 88be 6ebe 8abe
00000060: 2162 54bd 44d3 503e 00a8 01be
0.30083296 0.09828399 -0.36626577 -0.17163067 -0.047008075 0.08620667 -0.121782176 -0.1195372
0.19213435 -0.03034604 -0.29862884 0.22415258 -0.16582628 0.4267305 -0.5128731 -0.08597886
0.3072394 0.5272968 0.35962015 0.36081517 -0.30926883 0.4918279 -0.26616934 -0.2709841
-0.051851396 0.20393091 -0.12661743

model.6.0.weight f4 [1, 1, 3, 3, 3]
00000000: 0d60 413d 9f92 58bc 806c aabe 89b4 843e
00000010: 8315 02bd 571a 963e 8c60 47be 46ae 93be
00000020: 2b60 893d 6aca e2bd ac34 8ebd 6692 fe3e
00000030: 4f80 6abe d7b8 cc3e 0488 b03e 9348 84bd
00000040: 3e42 0f3e aec0 123e 6202 eb3d 4d90 b5be
00000050: aee9 1a3e c276 e0bd e094 2fbe 2d7b 0b3e
00000060: 1848 97be c4c3 083e 7ee9 acbe
0.04721074 -0.013218551 -0.33285904 0.25918987 -0.031758796 0.2931697 -0.19470423 -0.28843898
0.06707796 -0.11073764 -0.0694364 0.49721068 -0.22900508 0.39984772 0.34478772 -0.06459155
0.13990113 0.14331314 0.11475064 -0.35461655 0.15128204 -0.10960151 -0.17146635 0.13621207
-0.2954719 0.13355929 -0.3377189

model.7.0.weight f4 [1, 1, 3, 3, 3]
00000000: cd01 01bf 9c28 6e3e 0b93 243f a0db d33e
00000010: 4352 fa3d c4b0 dfbc 003b a8bd c1f6 1ebe
00000020: 2050 a53c cd10 e43e fccc 583e 37e3 153d
00000030: f745 063e 8679 ae3e 4e09 51bd c269 b43d
00000040: a3de 68be 3771 c53e 70ae 083d 655e 9abc
00000050: be12 36bd 157e 0cbf 67dc 67be 3138 9fbc
00000060: bb6a aebd 1be3 763e c3bd 423e
-0.5039337 0.23257679 0.6428687 0.41378498 0.122227214 -0.027305968 -0.08214378 -0.15523817
0.020179808 0.44544068 0.21171945 0.036593642 0.13112627 0.3407709 -0.051034264 0.08809234
-0.22741179 0.3856294 0.03336948 -0.018843839 -0.044451468 -0.54879886 -0.2264267 -0.019435974
-0.08516451 0.24110071 0.19017701

model.8.0.weight f4 [1, 1, 3, 3, 3]
00000000: 3538 acbe 18d5 c9be 5840 f1bd 6e6c 4d3c
00000010: 45ad 1f3e feb2 023d 5dae b6bc 63c4 bc3e
00000020: 269b 843e 8ca9 d5be 8a6d e53d ff70 a53c
00000030: bb01 c0bd f75d 0cbf 7628 713e a32d b53e
00000040: 6437 db3d 6e94 a0bc bf01 cabe ae64 b83e
00000050: f2b9 ffbd 445e a8be 7b39 023e aca6 f3be
00000060: acff babe 50a0 fdbd 9f6b bc3e
-0.33636633 -0.3942039 -0.11779851 0.012538059 0.15593441 0.03190898 -0.02229994 0.3686858
0.2589962 -0.41730917 0.112025335 0.020195482 -0.0937533 -0.5483088 0.23550591 0.3538638
0.10703924 -0.019602027 -0.39454457 0.36014313 -0.12486638 -0.3288442 0.1271724 -0.47588098
-0.36523187 -0.12384093 0.36800858

model.9.weight f4 [3, 1, 1, 1, 1]
00000000: 45ee 9b3e d520 abbe 6efb 7dbf
0.30455223 -0.33423486 -0.99211776

model.9.bias f4 [3]
00000000: c492 953d f379 96bd efca 94bd
0.07303384 -0.07347479 -0.07265269
