test_output/simulate_job/site-1/model_epoch_1.pth (torch, 22193 bytes, 11 tensors)

model.0.0.weight f4 [1, 1, 3, 3, 3]
00000000: 830b ab3d e37f a23d 50b6 4bbd b083 debd
00000010: eed7 1fba 6a70 68be cd94 cb3e ae0e 763d
00000020: 4a4c 6bbe bf9f 19bd 1b22 94bd aa71 083e
00000030: d89f ea3d 8b70 39be f3ca 22be c64c 943e
00000040: fa11 7cbd 2587 8c3c 3d38 15be 32f5 0e3e
00000050: 5788 093f ef87 be3e 7691 a1bd 72e4 f3bd
00000060: c6b3 c2bd d704 673d 9e49 68bb
0.08351805 0.07934549 -0.049734414 -0.10864961 -0.00060975447 -0.22699133 0.39761963 0.060072593
-0.2297832 -0.03750586 -0.072330676 0.1332461 0.11456269 -0.18109338 -0.15897731 0.28964823
-0.06154058 0.017154286 -0.14572234 0.13960722 0.53723663 0.37213084 -0.078890726 -0.11908807
-0.09506945 0.0564011 -0.003544427

model.1.0.weight f4 [1, 1, 3, 3, 3]
00000000: 15e9 ec3d 6b2e 09be faac 853e 7bae c03e
00000010: ed58 b5be 09ee 40bf 317c 45be 502e d4bd
00000020: 3158 f63e 7f89 0b3c a620 1e3e 1a4a d43e
00000030: 0aad f9be 91d2 0cbf 51ec af3d 9ed2 cabd
00000040: 68b1 823e e776 22bd 688f 3ebe ef2f 95bb
00000050: e92f 983e 2077 bb3e 6db3 e63d da7e 1fbe
00000060: 9257 16be b3da 063e 641e 98bc
0.11567894 -0.13396613 0.26108533 0.37633118 -0.35419407 -0.7536321 -0.19285657 -0.10360396
0.4811416 0.008516668 0.15442142 0.41462785 -0.4876483 -0.550088 0.08589996 -0.09903453
0.25525975 -0.039664175 -0.18609393 -0.0045528333 0.29724053 0.36614323 0.112646915 -0.15575734
-0.14681843 0.13169365 -0.018569179

model.2.0.weight f4 [1, 1, 3, 3, 3]
00000000: c67d 8d3e 1bd0 a3bd c680 c23d 08e6 84be
00000010: 1b60 043e ce3d 9f3e 9dd6 0d3f afe5 763e
00000020: faa4 a73d e41b 72be 8658 e73e b559 a3be
00000030: 2ccf c23e 6230 fabe c7f9 4f3e 9193 a63d
00000040: 1d7e 6dbd 0184 80bc 0cbc 523e ba7a 153e
00000050: 3d5a d23e c045 22be 520a 8c3e 2741 c13e
00000060: 600d f53d 8e71 9e3d dfc3 763e
0.2763502 -0.07998677 0.09497218 -0.2595675 0.12927286 0.3110184 0.554056 0.24111055
0.08185764 -0.23643452 0.45184726 -0.3190438 0.38048685 -0.48865038 0.20310126 0.08133615
-0.0579816 -0.015687944 0.20579547 0.14597598 0.4108447 -0.1584692 0.27351624 0.3774502
0.11965442 0.077365026 0.24098156

model.3.0.weight f4 [1, 1, 3, 3, 3]
00000000: 8ca0 d2be 24da 793e da32 a4be 8f90 3bbb
00000010: fa7d e4be 5486 84be fef8 a23d 814a 8c3e
00000020: 816d 633d 528a 6dbe a8f0 913e f924 ecbd
00000030: fb9e ccbd 52a5 a7be 956a 663e 48fe 893c
00000040: fb98 1e3e 83df e73e d05f d53e aa79 01be
00000050: 409c 82be d694 cfbd dd2a 013d 11bf 0d3e
00000060: 7bb1 b4bd ebb9 233f f1f3 96be
-0.41138113 0.2439962 -0.32070047 -0.00286201 -0.44627362 -0.25883734 0.07957648 0.27400592
0.055524353 -0.23197296 0.2850392 -0.115304895 -0.099912606 -0.32743317 0.22501595 0.016844884
0.15488045 0.45287713 0.41674662 -0.12644067 -0.25509834 -0.1013581 0.03153502 0.13842417
-0.08822914 0.63955563 -0.29482988

model.4.0.weight f4 [1, 1, 3, 3, 3]
00000000: b1e7 d3be 98f7 8b3e c010 a13e 021f ca3c
00000010: ca30 debd beaf 043e b190 f43e 4e57 81bd
00000020: 3f99 86be 0fe6 76be 1db0 7dbe fc01 18be
00000030: 2601 91be 31cf 4ebe 10cc 593f e4c9 613e
00000040: 6886 963d 3e98 2cbe d4ce 943e bebc 093e
00000050: 5c57 b2be f8b1 9cbe e8a4 9a3d f5a3 573d
00000060: 666a 153d d287 dabd 9f19 8dbc
-0.41387704 0.27337337 0.31458092 0.024672989 -0.108491495 0.12957665 0.4776664 -0.0631548
-0.26288792 -0.24111198 -0.24774213 -0.14844507 -0.2832119 -0.20196225 0.85077 0.22049671
0.07349855 -0.16854951 0.29064047 0.13450906 -0.34832275 -0.3060453 0.075509846 0.052646596
0.036478423 -0.10670437 -0.017224131

model.5.0.weight f4 [1, 1, 3, 3, 3]
00000000: 2209 9b3e 1b71 c23d 661b bdbe 4997 37be
00000010: 6624 38bd ec2c a23d 1cd6 f5bd 4808 02be
00000020: 3c0f 443e 7f9a 13bd 7ea9 98be 029d 5d3e
00000030: 559c 28be efaf d63e 293b 03bf a2b5 c0bd
00000040: 6870 9d3e 01a2 043f 947c b83e 5f70 b53e
00000050: ba59 9ebe 7a83 f83e 25e0 87be 59dd 8ebe
00000060: d855 54bd 9270 493e b83c 02be
0.30280405 0.094942294 -0.36934966 -0.17928804 -0.044956587 0.079187244 -0.12003729 -0.12698472
0.19146436 -0.03603601 -0.29816812 0.21641925 -0.16465886 0.41931102 -0.51262146 -0.09409644
0.30749822 0.518097 0.36032546 0.35437295 -0.3092783 0.4853781 -0.26538196 -0.2790325
-0.05183968 0.19671848 -0.12718475

model.6.0.weight f4 [1, 1, 3, 3, 3]
00000000: cd37 603d 7fdc 9fbb 759e a6be c5f9 883e
00000010: 88df c6bc a1e9 993e 09af 3fbe fbf5 8fbe
00000020: d4f9 993d 4a76 d5bd 9354 7ebd 6e59 013f
00000030: eaf3 62be 92de d03e 7a34 b43e 3745 68bd
00000040: 5098 163e 0efb 193e 9aef f73d bb6b b2be
00000050: 545d 223e 163e d3bd ce0e 28be 1151 133e
00000060: 429a 93be ea05 113e 5f51 a9be
0.054740716 -0.00487858 -0.32542768 0.2675306 -0.02427651 0.30061057 -0.18719114 -0.28117356
0.07518354 -0.104229525 -0.062092375 0.50527084 -0.22163358 0.40794808 0.35196286 -0.056706633
0.1470654 0.15037176 0.12106247 -0.34847817 0.15855914 -0.10314576 -0.16411898 0.14386393
-0.28828627 0.14162412 -0.33069894

model.7.0.weight f4 [1, 1, 3, 3, 3]
00000000: 6129 03bf d997 653e 4ed8 223f 95bf d03e
00000010: 45d7 ea3d 471e 0ebd 4e43 b8bd b3cc 26be
00000020: a7d5 273c 328f e03e d5fd 533e 7d90 dd3c
00000030: 0dec 003e 3dd7 a93e 97cb 6ebd 2a0c a33d
00000040: 1ce8 70be 0376 c13e 51ca cd3c 0913 96bc
00000050: 42df 36bd 0b96 0ebf d2da 70be 4040 eabc
00000060: 07f7 babd 5a32 703e 36f9 3b3e
-0.51235014 0.22421207 0.63611305 0.40771165 0.11466841 -0.034696843 -0.08997212 -0.16289024
0.01024381 0.4385925 0.20702298 0.027046436 0.12590046 0.33172026 -0.058299627 0.079613045
-0.23526043 0.37785348 0.025120886 -0.018319624 -0.04464651 -0.556977 -0.23520973 -0.02859509
-0.09129148 0.23456708 0.18356785

model.8.0.weight f4 [1, 1, 3, 3, 3]
00000000: 4ec8 a9be 3b69 c7be 608d e6bd 1a75 933c
00000010: a09a 253e 6186 1b3d 56ed 85bc d3ef bf3e
00000020: cde1 873e ee46 d3be 49ba f03d 7cf8 d43c
00000030: 5057 b5bd f101 0bbf 9b42 773e bc2d b83e
00000040: 25fb e73d 3845 55bc 8779 c7be 337c bb3e
00000050: 8a3d f3bd 5cc8 a5be f1ff 073e 71a7 f0be
00000060: 932a b8be 6747 f1bd 67c1 bf3e
-0.33160633 -0.38947472 -0.11257434 0.018000174 0.16172266 0.03796995 -0.016348522 0.3748766
0.2653946 -0.41265053 0.11754281 0.025997393 -0.08854544 -0.5429984 0.24146502 0.35972393
0.11327199 -0.013016991 -0.38959906 0.36618194 -0.11876972 -0.32379425 0.13281228 -0.47002748
-0.35969982 -0.11781197 0.37452242

model.9.weight f4 [3, 1, 1, 1, 1]
00000000: 01a0 983e 8d59 a8be 1d32 7ebf
0.29809573 -0.32880822 -0.99295217

model.9.bias f4 [3]
00000000: 9751 893d 343e 8abd fe83 88bd
0.06705015 -0.067501456 -0.066658005
