test_output/simulate_job/site-1/model_epoch_3.pth (torch, 22193 bytes, 11 tensors)

model.0.0.weight f4 [1, 1, 3, 3, 3]
000000 e9 5b 9a 3d bc 6c 92 3d c6 42 60 bd 56 6b f3 bd
       0.07537062 0.07149646 -0.05475118 -0.11885707
000010 6a 5c d6 b9 63 5e 61 be f1 28 c6 3e 4f 43 4e 3d
       -0.00040886115 -0.22008662 0.3870311 0.05035716
000020 95 57 72 be 79 ba 1e bd f2 ec 98 bd 81 d9 fe 3d
       -0.23666222 -0.038752053 -0.07467069 0.12443829
000030 1c a7 f1 3d 41 25 33 be 08 a8 1e be 1a 4d 92 3e
       0.11799452 -0.1749468 -0.15493786 0.2857445
000040 e4 54 78 bd c0 36 7d 3c 4b 96 11 be f5 83 0d 3e
       -0.060627833 0.015454948 -0.14217488 0.13819869
000050 bf 51 07 3f 69 66 c0 3e 5b fc a5 bd 7e 46 02 be
       0.5285911 0.37578133 -0.081047736 -0.12722203
000060 f4 09 c8 bd 67 a6 54 3d f3 c2 3a bc
       -0.097675234 0.051916506 -0.011399019

model.1.0.weight f4 [1, 1, 3, 3, 3]
000000 bc e1 f5 3d 1d c3 f9 bd 25 4d 8c 3e c9 94 c5 3e
       0.12005946 -0.12195418 0.27402607 0.38590077
000010 03 ca ae be ac 82 3d bf 63 5c 3b be 25 b1 bc bd
       -0.34138498 -0.74027514 -0.18296961 -0.09213475
000020 7b 44 fc 3e d9 49 ce 3b ab 2c 28 3e 1b 29 db 3e
       0.49270996 0.0062954244 0.1642329 0.42804798
000030 d1 6a f7 be 0b 96 09 bf bd aa cb 3d 9e 29 b5 bd
       -0.48323682 -0.5374457 0.09944675 -0.088458285
000040 51 1e 89 3e 9e 13 d4 bc d5 de 36 be bf 79 cb 3b
       0.26780942 -0.02588826 -0.17858441 0.0062095816
000050 31 34 9f 3e ce 63 be 3e 69 a8 ff 3d 83 da 11 be
       0.31094506 0.3718552 0.124832936 -0.14243512
000060 e6 6a 0b be 1a 90 14 3e cd 22 a9 bb
       -0.13614997 0.14508095 -0.0051616193

model.2.0.weight f4 [1, 1, 3, 3, 3]
000000 e2 a6 8d 3e 39 d0 9a bd 03 bf d0 3d a3 76 80 be
       0.27666384 -0.075592466 0.101926826 -0.25090513
000010 b7 94 04 3e 3d 66 a2 3e 2f da 0e 3f 64 32 7e 3e
       0.12947355 0.31718627 0.5580167 0.2482391
000020 e1 f0 b3 3d 23 6c 6a be 4b d9 e8 3e ed d0 a1 be
       0.087861784 -0.22892813 0.4547828 -0.3160471
000030 4b f7 c3 3e af 8b f6 be 3b 23 55 3e 0c dd b9 3d
       0.38274607 -0.48153445 0.2081422 0.090753645
000040 a8 c8 51 bd 38 41 33 bc 67 af 5b 3e 92 e3 1b 3e
       -0.05121675 -0.010940842 0.2145363 0.1522353
000050 73 37 d2 3e e6 78 19 be 2b b9 8e 3e b3 0f c4 3e
       0.4105793 -0.14987525 0.27875647 0.38293228
000060 c4 42 f9 3d e5 93 ad 3d 19 e3 7d 3e
       0.12170938 0.08475474 0.24793662

model.3.0.weight f4 [1, 1, 3, 3, 3]
000000 29 84 cb be 1d bf 74 3e 81 b0 9d be a1 24 2b bc
       -0.39749268 0.23901029 -0.30798724 -0.010445745
000010 73 c4 dd be c1 c4 85 be e9 6f b6 3d 69 af 89 3e
       -0.4331394 -0.26126674 0.08908064 0.2689164
000020 3a 9c 94 3d 69 7c 6f be ba 86 97 3e f9 4f f8 bd
       0.0725636 -0.23387302 0.29594976 -0.121246286
000030 8e 0a b5 bd 1e 73 a9 be 97 d8 74 3e d3 2e 7d 3c
       -0.08839904 -0.3309564 0.23910747 0.015453058
000040 9a 6e 2a 3e 49 64 e6 3e ba 44 d7 3e 64 81 04 be
       0.16643754 0.44998387 0.42044622 -0.12939984
000050 14 f0 79 be 64 4b d5 bd 6c 87 2c 3d 26 18 09 3e
       -0.24407989 -0.1041477 0.042121336 0.13388118
000060 d1 01 a0 bd f7 6e 23 3f e3 1e 91 be
       -0.078128465 0.63841194 -0.28343877

model.4.0.weight f4 [1, 1, 3, 3, 3]
000000 3a ef cb be f6 4e 94 3e 65 8b a8 3e b1 0a 20 3d
       -0.39830953 0.28966492 0.3291885 0.039072696
000010 35 96 bc bd 1b 77 16 3e f5 0c fc 3e 91 fd 47 bd
       -0.09208337 0.14693873 0.49228635 -0.048825804
000020 55 9b 7c be 74 ca 6a be 09 3f 6f be 8b 78 08 be
       -0.2466863 -0.22928792 -0.2336389 -0.13327233
000030 17 d1 8a be 85 04 41 be 09 09 5e 3f e7 5a 6e 3e
       -0.27112648 -0.1884938 0.86732537 0.23276864
000040 e8 5d b1 3d 34 c0 1c be e2 39 90 3e d3 4a 08 3e
       0.08660489 -0.15307695 0.2816916 0.13309793
000050 f4 eb ac be 18 fc 99 be 8f b6 93 3d 00 10 7b 3d
       -0.33773768 -0.30075145 0.07212555 0.061294556
000060 60 e2 19 3d 1b 49 c8 bd d3 34 94 bb
       0.037569404 -0.09779569 -0.0045228987

model.5.0.weight f4 [1, 1, 3, 3, 3]
000000 9b 1d 98 3e 2c 2d cb 3d f2 25 bb be 60 0a 2d be
       0.29710087 0.09920725 -0.36552387 -0.16898489
000010 4b e3 4e bd f7 5e bb 3d d5 6d 00 be 4c 44 e9 bd
       -0.050509732 0.091489725 -0.12541898 -0.1138998
000020 c4 cf 43 3e e7 6e ee bc eb cd 99 be ac 59 6b 3e
       0.19122225 -0.029105617 -0.30039915 0.22983426
000030 28 8c 2c be b6 55 dd 3e 82 9f 03 bf 24 e4 a5 bd
       -0.1685034 0.43229455 -0.51415265 -0.08100155
000040 6d a0 9c 3e b7 e1 08 3f 45 d0 b6 3e 30 6a bb 3e
       0.30591145 0.53469414 0.35705772 0.36604452
000050 bc f4 9e be 04 66 fd 3e 61 4c 89 be 70 ae 87 be
       -0.31046093 0.49491894 -0.26816085 -0.26500273
000060 ae 78 5d bd b4 c8 56 3e 12 d7 01 be
       -0.054070167 0.20975 -0.12679699

model.6.0.weight f4 [1, 1, 3, 3, 3]
000000 9b fb 3f 3d 73 e4 70 bc 07 0d ab be d1 0e 84 3e
       0.04687081 -0.014702904 -0.33408377 0.25792554
000010 46 2e 05 bd 27 74 95 3e b0 05 48 be 27 fc 93 be
       -0.032514833 0.2919018 -0.1953342 -0.28903314
000020 70 48 85 3d 61 78 e1 bd f2 a9 8e bd 51 c2 fd 3e
       0.06507957 -0.110092886 -0.06966008 0.49562314
000030 46 95 6a be 69 30 cc 3e 0f 1a b0 3e 06 99 85 bd
       -0.22908506 0.39880684 0.3439488 -0.065233275
000040 a9 f3 0e 3e 96 e1 11 3e 7f 48 ed 3d fc 19 b5 be
       0.13960136 0.1424621 0.11586093 -0.35371387
000050 66 35 1a 3e c0 cb de bd 60 cc 2f be 4e 61 0a 3e
       0.15059432 -0.10878706 -0.17167807 0.13513681
000060 6b 3a 97 be aa b2 07 3e b5 49 ad be
       -0.29536757 0.13251749 -0.33845297

model.7.0.weight f4 [1, 1, 3, 3, 3]
000000 3b 4c fe be 88 d5 74 3e 0a e1 25 3f 6e 5b d6 3e
       -0.49667534 0.2390958 0.6479651 0.4186663
000010 52 12 03 3e 2f 38 ae bc b5 1c 9c bd 6a ad 18 be
       0.12799957 -0.021267025 -0.07622663 -0.14909902
000020 9d c6 e8 3c 95 36 e7 3e 5f fc 5e 3e e6 9b 32 3d
       0.028415019 0.4515883 0.2177596 0.043605708
000030 8c 5b 0c 3e 7c ed b1 3e 23 a1 3b bd 73 7d c1 3d
       0.13706797 0.347515 -0.04580797 0.09447756
000040 ad f7 62 be 9e 8d c8 3e cc 46 25 3d b0 89 88 bc
       -0.22164793 0.39170545 0.04035072 -0.016667217
000050 ca 70 2a bd c6 b0 0a bf f9 d8 5f be d9 35 4d bc
       -0.04161147 -0.54175985 -0.21860112 -0.012525045
000060 e3 c6 a1 bd 88 aa 7c 3e c5 19 48 3e
       -0.07899263 0.24674428 0.1954108

model.8.0.weight f4 [1, 1, 3, 3, 3]
000000 76 9f ae be ee 4b cc be 40 60 fc bd f1 b7 e7 3b
       -0.34106034 -0.3990168 -0.12323046 0.007071488
000010 7b c8 19 3e 34 a2 d3 3c dd 9c e7 bc 35 b8 b9 3e
       0.15017883 0.02583418 -0.02827304 0.3627335
000020 a5 67 81 3e 4d d4 d7 be 45 1c db 3d d3 32 70 3c
       0.25274387 -0.4215416 0.10698751 0.014660555
000030 4f 12 ca bd be b4 0d bf 4c 35 6b 3e 35 52 b2 3e
       -0.09866773 -0.55353916 0.2296955 0.34828344
000040 d3 04 cf 3d d9 a9 d4 bc 63 4b cc be ea b3 b5 3e
       0.10108342 -0.025959896 -0.39901266 0.35488826
000050 4f 8e 05 be 19 bd aa be 9a e5 f9 3d 9f 94 f6 be
       -0.13042568 -0.33347395 0.12201996 -0.48160264
000060 75 ac bd be 89 a9 04 be f6 4a b9 3e
       -0.37045637 -0.12955298 0.36190003

model.9.weight f4 [3, 1, 1, 1, 1]
000000 6b a2 9e 3e 64 a1 ad be 42 61 7d bf
       0.3098329 -0.33912194 -0.9897653

model.9.bias f4 [3]
000000 d7 7a a0 3d 68 5c a1 bd 35 b8 9f bd
       0.0783593 -0.07878953 -0.077988066
