test_output/simulate_job/site-1/model_epoch_0.pth (torch, 22193 bytes, 11 tensors)

model.0.0.weight f4 [1, 1, 3, 3, 3]
00000000: fb64 973d 600b 963d f9ae 59bd 28e9 e9bd
00000010: 7ed0 eebb c6e7 6fbe 9498 ca3e b75b 713d
00000020: fef0 6cbe 5737 42bd abd3 a3bd eb6a 043e
00000030: ece0 d63d efae 41be 941b 29be 653f 903e
00000040: b43f 8bbd 6f5d 573c 933c 1fbe 0669 053e
00000050: b2c3 073f 15ab b93e 7419 afbd 1db2 fabd
00000060: cd0d d5bd a970 513d f513 c9bb
0.07392307 0.07326388 -0.053145383 -0.11421424 -0.007288038 -0.23428258 0.39569533 0.058925357
-0.23138806 -0.047416057 -0.07999357 0.12931411 0.10492119 -0.18914388 -0.16514426 0.28173366
-0.0679926 0.013144835 -0.15550451 0.13028345 0.5303298 0.36263338 -0.08549777 -0.12241004
-0.10403023 0.05113283 -0.0061364123

model.1.0.weight f4 [1, 1, 3, 3, 3]
00000000: d200 fd3d e469 09be e922 843e effe c03e
00000010: 5d8d b6be f51d 41bf 6ed2 45be 5838 d4bd
00000020: df26 f93e 7309 943c d291 243e e991 d23e
00000030: dcf3 f5be d14b 0dbf 13f8 a73d 66fe cbbd
00000040: 1746 813e baa0 25bd 57e1 34be 4fa7 4b3b
00000050: 30c3 983e 00ed bf3e caf4 ec3d 3e6c 23be
00000060: 09ff 11be 4900 043e e364 b5bc
0.12353672 -0.134193 0.25807884 0.376945 -0.35654727 -0.75436336 -0.19318554 -0.10362309
0.4866247 0.018070912 0.16071251 0.41126946 -0.48037612 -0.5519381 0.08201613 -0.09960632
0.25248787 -0.040436484 -0.17664085 0.0031075065 0.29836416 0.37485504 0.11570127 -0.1595926
-0.14257444 0.12890734 -0.022142833

model.2.0.weight f4 [1, 1, 3, 3, 3]
00000000: 0c95 883e 1954 b7bd cc6d ae3d 8de9 89be
00000010: 95cc f63d ea63 9a3e d885 0b3f 8154 6d3e
00000020: bc87 933d fd15 7cbe 123c e23e 4146 a8be
00000030: 26ce bd3e ed39 ffbe e3bd 453e 721c 923d
00000040: fd33 8bbd 12e9 d0bc 2383 483e a25e 0b3e
00000050: d387 cd3e cb1b 2cbe f4f8 863e 9d57 bc3e
00000060: 3419 e63d c77c 8a3d 17e1 6c3e
0.26676214 -0.08951587 0.08517036 -0.26935998 0.1205074 0.30154353 0.54501104 0.23176767
0.07203624 -0.24617763 0.44186455 -0.328661 0.3707134 -0.4984888 0.19310717 0.07134332
-0.06797025 -0.025501762 0.19581275 0.13610318 0.40142688 -0.16807477 0.2636181 0.36785594
0.11235276 0.06762081 0.2313274

model.3.0.weight f4 [1, 1, 3, 3, 3]
00000000: c592 cdbe b40b 823e 0584 a3be 0abd d53b
00000010: c163 e5be ddd2 7ebe ebec a43d 3a63 913e
00000020: 0517 763d aa51 63be 9d90 8f3e 2412 d8bd
00000030: ddc6 d7bd 8294 a2be 6520 603e d4ad db3c
00000040: 7649 173e dac7 ec3e 4d75 d53e 77b4 eebd
00000050: 1f68 85be eb96 bbbd 4222 cc3c ced9 173e
00000060: ca3d c0bd 1649 263f 2fad 9bbe
-0.4015104 0.25399554 -0.3193666 0.0065227794 -0.4480267 -0.24885125 0.08053001 0.28396016
0.060080547 -0.22199121 0.2804002 -0.10550335 -0.10535977 -0.31753927 0.21887358 0.026816286
0.14774117 0.46246225 0.41691056 -0.11655515 -0.26056 -0.09159645 0.02491868 0.1482918
-0.09386785 0.6495527 -0.30405566

model.4.0.weight f4 [1, 1, 3, 3, 3]
00000000: 2d50 d3be 4781 8c3e 645e a03e 321f b43c
00000010: aefc e7bd 90bd fb3d 1ad3 f53e c285 8abd
00000020: 7c46 8bbe e1f1 77be 7feb 7ebe 9602 11be
00000030: 6ce6 93be d781 54be 2647 5a3f 8174 613e
00000040: c002 8e3d 5675 2cbe 1bec 993e ac41 133e
00000050: f3d3 aebe 6212 99be 2df4 ac3d 0397 763d
00000060: bee6 363d 8d5c d5bd 37bf 2bbc
-0.41272107 0.2744238 0.31322014 0.021987531 -0.11327492 0.122920156 0.4801262 -0.067637935
-0.27202213 -0.24213363 -0.24894522 -0.14161143 -0.28886735 -0.20752655 0.85264814 0.22017099
0.06934118 -0.16841635 0.30062947 0.1438052 -0.3414608 -0.29896837 0.0844501 0.06020261
0.044653647 -0.10418043 -0.010482601

model.5.0.weight f4 [1, 1, 3, 3, 3]
00000000: d306 a03e 3214 d63d 0718 b8be 5d89 2fbe
00000010: 1e38 10bd 3ff4 b13d 9917 e2bd 4547 fabd
00000020: 3638 4e3e 6f9c dcbc 3f8b 93be a756 603e
00000030: 59a2 1ebe 09cd d43e 42b5 00bf e39f babd
00000040: b98e a23e 099c 063f 3199 bd3e 5b2b b53e
00000050: 373c 99be ce02 fd3e 0fc7 82be 804a 90be
00000060: 7e64 2bbd bf47 463e 090f f0bd
0.31255206 0.10453071 -0.3595583 -0.17142244 -0.035209768 0.08689164 -0.11039657 -0.12220625
0.2013863 -0.026930062 -0.28817174 0.21908055 -0.15491618 0.4156268 -0.5027658 -0.09112527
0.31749514 0.5258184 0.37030938 0.3538464 -0.29928753 0.49416202 -0.25542495 -0.2818184
-0.041843884 0.19363306 -0.11721618

model.6.0.weight f4 [1, 1, 3, 3, 3]
00000000: e54a 373d 2296 73bc e3b9 abbe e3da 833e
00000010: 6158 0cbd bfcf 943e cfe7 49be 710d 95be
00000020: 1a85 853d eae4 e9bd 999f 93bd b48b fd3e
00000030: 2531 6dbe 41c0 cb3e b017 af3e 12a7 88bd
00000040: 4f68 0c3e 22ce 0f3e 838c e33d 8785 b7be
00000050: 911e 183e cfac e7bd dd4c 32be 7d14 093e
00000060: dfb6 98be 84c8 063e 566e aebe
0.04474916 -0.014867337 -0.33540258 0.25752935 -0.034263972 0.29064748 -0.19717334 -0.29111817
0.06519528 -0.11420615 -0.07208175 0.49520648 -0.23163278 0.39795116 0.3419776 -0.06672491
0.13711666 0.14043477 0.11110785 -0.3584406 0.1485541 -0.113122575 -0.17412134 0.13386722
-0.2982702 0.13162428 -0.34068555

model.7.0.weight f4 [1, 1, 3, 3, 3]
00000000: 298b 01bf 6069 613e 527f 213f cd64 d23e
00000010: 7ff2 db3d 64cb 2fbd f953 c7bd bb72 2ebe
00000020: 4e4c be3a b79c e43e 3ddc 5d3e 6831 df3c
00000030: 76f7 0a3e f85a a83e 5c66 85bd a20d 9c3d
00000040: b131 79be ff8c be3e 262c 0a3d a8cd 32bc
00000050: 1d14 12bd 0d53 0cbf 7c87 67be 512d 0dbd
00000060: d1a7 acbd 3d73 6d3e e710 363e
-0.50602967 0.22012854 0.630849 0.4109253 0.10739612 -0.042918578 -0.097328134 -0.17035954
0.001451859 0.44650814 0.21666045 0.027245238 0.13570961 0.32881904 -0.06513664 0.07619788
-0.24335362 0.37216946 0.03373351 -0.01091329 -0.035663713 -0.54814225 -0.22610277 -0.034467045
-0.08430446 0.23188491 0.17779885

model.8.0.weight f4 [1, 1, 3, 3, 3]
00000000: 11cc a6be 71f1 c4be 5765 dcbd fd12 cb3c
00000010: e2fa 2b3e 9933 353d cd2c 13bc 097f c33e
00000020: ed83 8b3e 697b d0be a1d4 fc3d d1cc 023d
00000030: 1c78 a8bd b39a 09bf bf67 7d3e 70e3 bb3e
00000040: 0f43 f63d e44f bdbb 4977 c4be 23f0 be3e
00000050: 83f4 e5bd c1b5 a2be b324 0e3e ca9a edbe
00000060: abbd b4be 971c e4bd f055 c33e
-0.32577565 -0.38465455 -0.107615165 0.024789328 0.16794923 0.04423866 -0.008982849 0.38182858
0.2724909 -0.40719154 0.12345243 0.03193361 -0.08226034 -0.5375168 0.24746607 0.3669696
0.12024509 -0.005777346 -0.38372257 0.37292585 -0.112282775 -0.31779292 0.13881187 -0.46407157
-0.35300955 -0.111382656 0.38151503

model.9.weight f4 [3, 1, 1, 1, 1]
00000000: 6dc0 943e a3cd a4be 9274 7fbf
0.2905306 -0.32188138 -0.9978725

model.9.bias f4 [3]
00000000: 3e61 753d 0319 77bd 80e6 73bd
0.05990719 -0.060326587 -0.059545994
